…
model would look like: mod &lt;- Sequential() mod$add(Dense(100, input_shape = c(1))) mod$add(Activation(&quot;relu&quot;)) mod$add(Dense(120)) mod$add(Activation(&quot;relu&quot;)) mod$add(Dense(1)) mod$add(Activation(&quot;linear&quot;)) That’s it. Simple! Next, we can print a summary of the network, to visualise how many parameters it has and other aspects: mod ## Model ## ________________________________________________________________________________ ## Layer (type) Output Shape Param # ## ================================================================================ ## dense_1 (Dense) (None, 100) 200 ## ________________________________________________________________________________ ## activation_1 (Activation) (None, 100) 0 ## ________________________________________________________________________________ ## dense_2 (Dense) (None, 120) 12120 ## ________________________________________________________________________________ ## activation_2 (Activation) (None, 120) 0 ## ________________________________________________________________________________ ## dense_3 (Dense) (None, 1) 121 ## ________________________________________________________________________________ ## activation_3 (Activation) (None, 1) 0 ## ================================================================================ ## Total params: 12,441 ## Trainable params: 12,441 ## Non-trainable params: 0 ## ________________________________________________________________________________ Before we can perform inference, we need to compile and run the model. In this case we need to specify three things: A loss function, which specifies th
…
tivation(&quot;relu&quot;)) mod$add(Dense(1)) mod$add(Activation(&quot;sigmoid&quot;)) We can visualise this model using the {plot_model} function (Figure 4.1). plot_model(mod,&#39;images/DNN1.png&#39;) Figure 4.1: Example of a multilayer convolutional neural network We can also print a summary of the network, for example to see how many parameters it has: mod ## Model ## ________________________________________________________________________________ ## Layer (type) Output Shape Param # ## ================================================================================ ## flatten_1 (Flatten) (None, 43200) 0 ## ________________________________________________________________________________ ## activation_4 (Activation) (None, 43200) 0 ## ________________________________________________________________________________ ## dense_4 (Dense) (None, 100) 4320100 ## ________________________________________________________________________________ ## activation_5 (Activation) (None, 100) 0 ## ________________________________________________________________________________ ## dense_5 (Dense) (None, 1) 101 ## ________________________________________________________________________________ ## activation_6 (Activation) (None, 1) 0 ## ================================================================================ ## Total params: 4,320,201 ## Trainable params: 4,320,201 ## Non-trainable params: 0 ## ________________________________________________________________________________ In this case we see a total of \\(4,320,201\\) parameters. Yikes, that’s a lot of parameters to tune, and not much data! Next we need to compile a
…
